EXAM_PYTORCH/fashion_mnist.pth (torch, 243471 bytes, 10 tensors)

conv1.weight f4 [6, 1, 3, 3]
0	0x3dd3d682	0.103436485
1	0xbdb673cb	-0.089088045
2	0xbec1ad0d	-0.3782734
3	0xbdee878e	-0.11646949
4	0xbec48d03	-0.38388833
5	0xbd8d8c1c	-0.06911489
6	0xbe85da86	-0.26143283
7	0xbeeecdd8	-0.4664142
8	0xbe203139	-0.15643777
9	0xbf3c9da7	-0.7367806
10	0xbf1a4e39	-0.6027561
11	0xbee06f0c	-0.43834722
12	0xbe0ad099	-0.13556136
13	0xbf6dcb2d	-0.92888147
14	0xbf1ae1c1	-0.60500723
15	0xbf0c1806	-0.54724157
16	0xbecf139f	-0.40444657
17	0xbe0b43e2	-0.13600114
18	0x3ca9c084	0.020721681
19	0x3eee52dc	0.46547592
20	0xbd1511a9	-0.036393795
21	0x3e89acab	0.26889548
22	0x3e59e006	0.21276864
23	0x3e789888	0.24276936
24	0xbd5aaf1c	-0.053389654
25	0x3eb306e5	0.34966198
26	0x3e932ea0	0.2874651
27	0xbe3d35e9	-0.18477596
28	0xbedd388b	-0.432072
29	0x3efbf8a7	0.49213144
30	0xbdb5d7fe	-0.08879088
31	0xbf05de2a	-0.5229212
32	0x3f141a79	0.57852894
33	0xbea0ba59	-0.31392172
34	0xbf04cb8a	-0.51873076
35	0x3efbdfad	0.4919409
36	0x3e8af6e0	0.27141476
37	0x3ebb5279	0.3658636
38	0x3e580dd8	0.21099031
39	0x3e082db4	0.13298684
40	0x3ecf693a	0.4050997
41	0x3e99e3b9	0.3005655
42	0x3e5dd9a6	0.21665058
43	0xbe397096	-0.18109354
44	0x3dbc017e	0.09179972
45	0xbe04cab8	-0.12967956
46	0xbd8aaa84	-0.067708045
47	0xbe37f4f2	-0.17964533
48	0xbe139a59	-0.14414348
49	0x3e997b1d	0.2997674
50	0x3e840681	0.25786212
51	0x3ba38163	0.0049897893
52	0x3ef33dfe	0.47508234
53	0x3e1d079b	0.15334933

conv1.bias f4 [6]
0	0xbda6d633	-0.08146324
1	0x3e34a6ae	0.17641708
2	0x3f3cc52a	0.7373835
3	0x3e7cfde3	0.24706225
4	0xbd13f3e3	-0.03612126
5	0x3f2e04d5	0.67976123

conv2.weight f4 [16, 6, 3, 3]
0	0xbdca8d48	-0.098902285
1	0xbde6bf47	-0.11266952
2	0xbd423caf	-0.047421154
3	0x3d2659e0	0.040613055
4	0xbd06426a	-0.03277818
5	0x3d3b1b3d	0.045680273
6	0xbc7c7076	-0.015407672
7	0x3e0709af	0.13187288
8	0xba924824	-0.0011160416
9	0xbd950586	-0.07276444
10	0xba2de7d3	-0.0006633971
11	0xbe028735	-0.1274689
12	0xbd26c691	-0.04071671
13	0x3d459707	0.048239734
14	0xbdc8062e	-0.09766804
15	0x3e148dec	0.14507264
16	0xbd3639f0	-0.044488847
17	0x3e37f077	0.17962824
18	0xbddf0203	-0.108890556
19	0xbdf904e8	-0.12159139
20	0x3c5d61c6	0.013512081
21	0xbdf3ef39	-0.119108625
22	0xbd0c6b59	-0.034282062
23	0xbd9123c6	-0.07086901
24	0x3ddfd3a7	0.10929041
25	0x3e058597	0.13039242
26	0xbe01b9e1	-0.12668563
27	0xbdac48c2	-0.08412315
28	0x3d859a79	0.06523604
29	0xbd759886	-0.05995991
30	0x3c6b685a	0.014368141
31	0xbd47f5fd	-0.048818577
32	0x3de26f9e	0.110564455
33	0xbdcf9f6c	-0.10137829
34	0x3ded0937	0.11574023
35	0x3df88191	0.12134088
36	0xbdef2ce1	-0.11678482
37	0x3d12085a	0.035652496
38	0x3d510e05	0.05103876
39	0xbd907f6f	-0.07055556
40	0xbd8730f7	-0.06601136
41	0xbe0b3c2b	-0.13597171
42	0xbaf46b9f	-0.0018647796
43	0xbdf23165	-0.118258275
44	0x3bc79650	0.0060909167
45	0x3c9f42a8	0.019440964
46	0x3cbc3412	0.022974048
47	0xbb91acdf	-0.0044456567
48	0x3d4ea872	0.05045361
49	0x3df8702e	0.121307716
50	0x3daa5bca	0.083182886
51	0xbd825676	-0.06364147
52	0xbd637ca1	-0.055538777
53	0xbd63a26d	-0.055574823
54	0x3ccdce42	0.025122765
55	0xbcc81984	-0.02442623
56	0x3d104e5e	0.035230987
57	0x3e48a67f	0.19594763
58	0x3e079029	0.13238586
59	0xbd4db0ec	-0.050217554
60	0x3d40085a	0.046882965
61	0xbde89fa3	-0.11358573
62	0x3d4684d3	0.048466515
63	0x3cc7914e	0.024361279
64	0xbdb6d297	-0.089268856
65	0xbe12ad10	-0.1432383
66	0x3e88aa9a	0.2669266
67	0x3df06039	0.11737103
68	0xbe9e97aa	-0.30975085
69	0x3e5beb89	0.21476568
70	0x3d17f973	0.037103128
71	0xbe9efcec	-0.3105234
72	0xbe02c52d	-0.12770529
73	0x3d9f12d2	0.077672616
74	0x3e53bd57	0.20677696
75	0xbcf3ccde	-0.029760774
76	0xbd5fd21a	-0.054643728
77	0xbd0a60e3	-0.033783805
78	0xbd950fde	-0.07278417
79	0x3dc8126b	0.09769138
80	0x3e0f147e	0.13972661
81	0xbd575d8a	-0.05257944
82	0x3de8b806	0.11363225
83	0x3de86103	0.113466285
84	0x3e26c7ce	0.16287157
85	0x3e3a068f	0.18166564
86	0x3d7e4611	0.06207854
87	0x3d78f88a	0.0607839
88	0x3e59576e	0.21224758
89	0xbe48b89d	-0.19601674
90	0x3d5d7239	0.05406401
91	0xbd910ffc	-0.07083127
92	0x3dce71b3	0.1008028
93	0xbd2104ca	-0.039311208
94	0x3ddf5cb5	0.10906354
95	0xbde6b8f3	-0.11265745
96	0xbd898dce	-0.067165
97	0x3c8c4b98	0.01712589
98	0xbd5d3b8c	-0.054011866
99	0x3b5cc5a4	0.003368714
100	0xbda98ce0	-0.08278823
101	0x3e6964b5	0.22792323
102	0xbdc6d3f9	-0.09708399
103	0x3e27d472	0.16389635
104	0x3dec6176	0.11542027
105	0xbde2dda9	-0.110774346
106	0x3d8d5193	0.06900325
107	0x3e2330c6	0.15936574
108	0xbda0d61e	-0.078533396
109	0xbd966dc7	-0.07345157
110	0x3e032333	0.12806396
111	0x3d20760c	0.03917508
112	0x3da2fccc	0.079583734
113	0x3d12ccbe	0.03583979
114	0xbd53fc1b	-0.0517541
115	0x3dc642c0	0.096807
116	0x3da9675c	0.08271667
117	0x3c58355e	0.0131963175
118	0x3df487f1	0.11939991
119	0x3d64cb94	0.05585821
120	0x3d512bb8	0.051067084
121	0x3dbe32ee	0.09287058
122	0x3dcd8f59	0.10037107
123	0x3d279844	0.040916696
124	0x3cc5863d	0.024111861
125	0xbd93caaa	-0.072163895
126	0x3e0de4ac	0.13856763
127	0xbe03fd4a	-0.12889591
128	0x3c82b140	0.01595366
129	0xbd9d8450	-0.07691252
130	0x3d59dc42	0.05318857
131	0xbdeb65d5	-0.11494032
132	0xbd95861a	-0.073009685
133	0x3d82c93c	0.06386039
134	0xbce64ed5	-0.028113762
135	0xbca966fc	-0.02067899
136	0x3c4f143c	0.012639102
137	0xbd629491	-0.055317465
138	0xba91c6f6	-0.0011121917
139	0x3df053ee	0.11734758
140	0xbccafc1f	-0.024778424
141	0x3d2b3d87	0.041806724
142	0x3c0bc86a	0.008531669
143	0xbd81f0c7	-0.06344753
144	0x3d54d61b	0.051962
145	0xbdfc20fe	-0.1231098
146	0x3db6b750	0.08921683
147	0x3d82319f	0.06357121
148	0xbc56f890	-0.013120785
149	0xbda2b50c	-0.07944688
150	0x3dda89e2	0.1067083
151	0x3dcf0081	0.10107518
152	0xbd499199	-0.04921112
153	0xbdb733e3	-0.089454435
154	0x3dcefe8b	0.10107144
155	0x3bf01281	0.0073264246
156	0x3ce39dea	0.02778526
157	0x3d89e2ad	0.06732688
158	0xbde8a154	-0.11358896
159	0x3cab67f9	0.020923601
160	0x3ddb9afc	0.1072292
161	0xbde45160	-0.111483335
162	0x3cc1b81a	0.023647357
163	0x3e070192	0.13184193
164	0x3c7a25d0	0.015267804
165	0xbd8fe25a	-0.07025595
166	0xbe1240d7	-0.14282547
167	0x3d739d78	0.059476346
168	0x3e1fdc3d	0.15611358
169	0x3c176be0	0.009242028
170	0xbdc535c7	-0.09629398
171	0x3d21a399	0.03946266
172	0x3e3877ac	0.18014401
173	0x3d55f171	0.05223221
174	0xbdc2994e	-0.09501897
175	0x3de5f48d	0.11228285
176	0x398cf8af	0.00026888165
177	0x3de0ae0b	0.10970696
178	0x3da95fff	0.08270263
179	0xbd4949bf	-0.049142595
180	0xbe10b4af	-0.14131425
181	0x3dbc262a	0.09186967
182	0xbd74124f	-0.059587773
183	0xbcd83500	-0.02639246
184	0x3e202af2	0.15641382
185	0x3d17ce15	0.03706177
186	0xbd44f65c	-0.04808651
187	0x3c63f75d	0.0139139565
188	0xbdd21d7f	-0.10259532
189	0x3daa6d83	0.08321669
190	0x3e3413f4	0.17585737
191	0xbd9cbad1	-0.0765282
192	0x3e36d338	0.17854011
193	0xbd9f871c	-0.07789442
194	0xbdbc28ed	-0.091874935
195	0x3e7d47b2	0.24734381
196	0xbcb610bd	-0.022224778
197	0x3da16def	0.07882296
198	0x3de86e7b	0.113491975
199	0xbdb872ec	-0.090062946
200	0xbcae04e5	-0.021242568
201	0xbdc9f347	-0.098608546
202	0xbcee25be	-0.029070731
203	0x3e009f81	0.12560846
204	0x3c389a4d	0.011267257
205	0xbcf62539	-0.030047046
206	0x3da1c0b2	0.07898082
207	0x3d187143	0.03721739
208	0x3dafaee8	0.085782826
209	0x3db1861e	0.08668159
210	0xbcfc6279	-0.030808674
211	0xbd4e166e	-0.05031436
212	0xbc79825a	-0.015228832
213	0xb92dd8aa	-0.0001657928
214	0xbdc2cef4	-0.095121294
215	0x3d3317bb	0.043723803
216	0xbdaee01b	-0.085388385
217	0x3bd3683c	0.0064516347
218	0xbd3ce8c7	-0.04612043
219	0x3dc02035	0.09381143
220	0x3d799324	0.06093134
221	0x3d2a230d	0.041537333
222	0xbda33a17	-0.07970064
223	0xbce97099	-0.028496074
224	0xbd1b2397	-0.037875738
225	0x3de76d7e	0.11300181
226	0xbdf65cc6	-0.12029414
227	0xbce34bc9	-0.027746098
228	0xbd0ba17d	-0.034089554
229	0x3e2c9dbb	0.16857044
230	0xbc4393c3	-0.011937085
231	0x3e5022c0	0.20325756
232	0x3e553801	0.20822145
233	0xbdfbeea6	-0.12301378
234	0x3dae7e74	0.08520213
235	0x3dcee7c2	0.10102798
236	0xbdda7683	-0.106671356
237	0xbd8b1f06	-0.067930266
238	0x3cbc0bdb	0.022954872
239	0x3dcc0a42	0.09962894
240	0xbe0677a5	-0.13131578
241	0xbdfdafa8	-0.123870194
242	0xbd1aeaa9	-0.037821446
243	0x3cb0df54	0.021590866
244	0x3dcee08b	0.10101422
245	0xbdc615cd	-0.09672127
246	0xbdb982d4	-0.090581566
247	0x3da8463c	0.08216521
248	0x3dc82dcf	0.09774362
249	0xbd276344	-0.04086615
250	0x3db91a87	0.09038263
251	0xbe09cafb	-0.13456337
252	0x3d07fa74	0.033197835
253	0x3d828b1d	0.0637419
254	0xbdd8a8cc	-0.105790704
255	0xbdd4418b	-0.10364064

conv2.bias f4 [16]
0	0x3da9ce24	0.08291271
1	0x3d3b03a0	0.045657754
2	0xbc9de8e0	-0.019276083
3	0x3c4e39bf	0.01258701
4	0xbdef85b9	-0.116954274
5	0x3d5448ac	0.051827118
6	0x3dc416d4	0.095746666
7	0x3d564495	0.0523115
8	0xbc8f06d7	-0.017459316
9	0x3db80966	0.089861676
10	0x3dec1250	0.1152693
11	0xbc9bb197	-0.01900558
12	0x3e5d78d1	0.21628119
13	0x3e26d587	0.16292392
14	0x3ddd462c	0.108044
15	0x3d8c101e	0.068390116

fc1.weight f4 [120, 400]
0	0xbcd003d0	-0.025392443
1	0xbd2bb2ba	-0.041918494
2	0xbb8ae576	-0.0042387797
3	0xbcac4785	-0.021030197
4	0xbd01464f	-0.031561192
5	0xbd0baca0	-0.034100175
6	0x3cb99f7b	0.022659054
7	0xbccbb8a1	-0.024868311
8	0xbc25b502	-0.010113956
9	0xbd212a6c	-0.039347097
10	0xbd4029ce	-0.046914868
11	0x3bd92505	0.0066267275
12	0xbd036eb2	-0.03208799
13	0x3cc40c5c	0.023931675
14	0x3caf0df3	0.021368956
15	0x3cc98365	0.024598787
16	0x3d53004f	0.051513966
17	0xbcb441b5	-0.022003988
18	0xbb227d76	-0.0024794019
19	0x3d3e2d76	0.046430074
20	0x3d02826a	0.031862654
21	0xbd263fbe	-0.040588133
22	0xbc88354c	-0.016626976
23	0x38d9b58e	0.000103811835
24	0xbaf7cc81	-0.0018905551
25	0xbd451a1b	-0.0481206
26	0x3d12e4b1	0.03586263
27	0xbc1e03df	-0.009644478
28	0x3cb3c141	0.021942737
29	0xbb17a105	-0.0023136747
30	0xb96b81f0	-0.00022459752
31	0x3d8ad59c	0.06779024
32	0xbc95ebd8	-0.018300936
33	0x3c72eb21	0.014826567
34	0xbd7e843a	-0.06213782
35	0x3be0eb56	0.0068639917
36	0xbcff4601	-0.03116131
37	0x3cfdbfb2	0.030975197
38	0x3d036903	0.03208257
39	0xbd314595	-0.04327925
40	0xbd70f7ab	-0.058829945
41	0xbc902276	-0.017594557
42	0x3d627abe	0.055292837
43	0xbc756582	-0.014977815
44	0xbd2ba7a1	-0.04190791
45	0xbdb32595	-0.087474026
46	0x3b29d5b8	0.002591474
47	0x3d898dd7	0.06716507
48	0x3ca5c8df	0.020237384
49	0x3d1b959f	0.037984487
50	0xbcf1b6c8	-0.029506102
51	0x3c907f9a	0.01763897
52	0x3b8aa2a9	0.0042308164
53	0x3b8a1aa2	0.0042146007
54	0x3c243c4e	0.010024143
55	0x3caac63c	0.020846479
56	0xbccb5dda	-0.024825025
57	0xbd2ace94	-0.041700915
58	0x3d5a33e2	0.053272136
59	0xbbd2dc4c	-0.006434953
60	0x3d28140e	0.04103475
61	0xbb9457d2	-0.0045270706
62	0xbcbe4da4	-0.023230381
63	0x3c9e0ba3	0.019292658
64	0x3d216802	0.03940583
65	0xbc98c303	-0.018647676
66	0x3c112eef	0.0088612875
67	0x3d0c551d	0.034260858
68	0x3d2c84d3	0.04211886
69	0x3d13b67b	0.0360627
70	0xbd266d84	-0.040631786
71	0xbcdb337c	-0.026757948
72	0x3d0df77d	0.03465985
73	0xbaf3519e	-0.0018563753
74	0xbd2dab54	-0.04239972
75	0x3d014153	0.03155644
76	0x3d9d6091	0.07684434
77	0x3d231e26	0.039823674
78	0x3d501bf5	0.050807912
79	0x3d466cae	0.04844349
80	0x3c850dc3	0.016241914
81	0xbd02e2f2	-0.031954713
82	0xbc1d4baa	-0.009600559
83	0xbcef7411	-0.02923015
84	0xbd25dd5d	-0.04049431
85	0x3cf84cf6	0.030310135
86	0x3c5023c3	0.012703839
87	0xbd05090f	-0.032479342
88	0x3c34af92	0.011028187
89	0x3ccbad31	0.024862858
90	0xbcd2aa2e	-0.025715914
91	0x3aad726a	0.0013232951
92	0x3ce5842f	0.028017132
93	0xbd26e798	-0.04074821
94	0xbab93fd7	-0.0014133406
95	0xbd1b3596	-0.0378929
96	0x3cdcb80e	0.026943233
97	0x3d307492	0.04307992
98	0x3d41e1f0	0.04733461
99	0x3d5f191e	0.054467313
100	0xbcad5cb7	-0.021162374
101	0xbc791a44	-0.015204016
102	0x3cb5756e	0.022150721
103	0xbba791de	-0.0051138243
104	0x3b275738	0.0025534164
105	0x3c038500	0.008027315
106	0x3ce72cf6	0.028219681
107	0xbcaabcd2	-0.02084199
108	0x3c105dab	0.008811395
109	0x3c831cab	0.01600488
110	0x3c408759	0.011751019
111	0x3cdb7e56	0.02679364
112	0x3cee6faf	0.02910599
113	0xbc26543d	-0.01015192
114	0x3c4b2ba2	0.01240054
115	0xbc1e0010	-0.00964357
116	0x3d37d515	0.044880945
117	0x3c18587a	0.009298438
118	0x3bf06013	0.0073356717
119	0x3bcb499b	0.006203843
120	0x3c95ebdb	0.018300941
121	0x3d3f0698	0.046637148
122	0xbbe9589d	-0.007121159
123	0x3d06406c	0.03277628
124	0x3c8ca455	0.017168203
125	0xbd04a11b	-0.032380205
126	0xbcad887b	-0.021183243
127	0xbd35b55e	-0.04436242
128	0xbd304bf5	-0.04304119
129	0xbbee2298	-0.0072673075
130	0x3d4658c5	0.0484245
131	0x3ce5c953	0.0280501
132	0xbc881c81	-0.016615154
133	0xbc0d9dcc	-0.008643579
134	0x3c153974	0.009107936
135	0xbc727ff7	-0.014801017
136	0xbcb4e8dd	-0.022083694
137	0xbc949c51	-0.018140944
138	0xbd385d7f	-0.04501104
139	0xbb868c30	-0.004106067
140	0x3c6c8a01	0.0144372
141	0xbcde699d	-0.02714997
142	0xbcfa9d9b	-0.03059273
143	0x3cbcf3b5	0.023065427
144	0x3d0cc051	0.034363095
145	0x3c894691	0.016757281
146	0x3d2bed65	0.041974444
147	0x3c6ab2bf	0.014324843
148	0x3cde25b3	0.027117586
149	0x3d0b6569	0.03403226
150	0xbcfeb84e	-0.031093743
151	0xba8a9c15	-0.001057508
152	0xbb6d5f7f	-0.003622025
153	0xbd01fedc	-0.031737193
154	0x3c1906af	0.009339972
155	0xbd6c13cc	-0.057636067
156	0xbd9a8620	-0.075451136
157	0x3d196cef	0.037457403
158	0x3c28e9db	0.010309662
159	0x3cd39948	0.025829926
160	0xbd132af7	-0.035929646
161	0xbbb4bcab	-0.005515655
162	0x3cfdc0b7	0.030975683
163	0x3cac306f	0.021019189
164	0x3d803aaf	0.06261193
165	0xbb99bd27	-0.004691738
166	0x3d0bc840	0.03412652
167	0x3d5d744b	0.054065984
168	0xbcfd15b7	-0.030894144
169	0x3d2ca1cb	0.042146485
170	0xbc95953d	-0.018259639
171	0x3d277f51	0.040892903
172	0x3d8b1104	0.06790355
173	0xbd02516a	-0.031815924
174	0x3c9468f6	0.018116456
175	0xbd3919f8	-0.04519078
176	0x3cf9f775	0.030513505
177	0xbd5c54fa	-0.053791977
178	0xbc9fb70f	-0.019496469
179	0xbd2922d7	-0.04129299
180	0x3ab965db	0.0014144735
181	0x3d15d693	0.036581587
182	0xba81dca8	-0.000990768
183	0x3cdaac42	0.026693467
184	0xbd510bcc	-0.05103664
185	0xbc3376f3	-0.010953653
186	0x3d362f09	0.04447845
187	0x3c9dab2c	0.01924666
188	0xbc950b9e	-0.018194016
189	0xbd0592a6	-0.032610558
190	0xbd35bcc9	-0.044369493
191	0xbd4afd30	-0.049557865
192	0xbcb4259a	-0.021990586
193	0x39637973	0.0002169365
194	0xbbb2e6df	-0.005459651
195	0x3d335c9b	0.043789487
196	0x3ba9f0a5	0.0051861578
197	0xbd17040d	-0.036869098
198	0xbca5feee	-0.020263162
199	0x3d168133	0.036744308
200	0x3d1df795	0.03856619
201	0xbb92214a	-0.004459535
202	0x3c507ce1	0.012725086
203	0x3d042c2e	0.032268696
204	0x3d05943e	0.032612078
205	0xbcf20b2f	-0.029546348
206	0xbd05a8db	-0.032631736
207	0x3caf8d84	0.021429785
208	0xbd5a58b8	-0.053307265
209	0xbd11c7b3	-0.03559084
210	0xba9637dd	-0.001146074
211	0xbd672ec0	-0.05644107
212	0xbceaa4d7	-0.028643055
213	0xbd67f0fa	-0.056626298
214	0xbd2a9f5e	-0.04165589
215	0x3d3273cd	0.043567467
216	0x3d5ce573	0.053929757
217	0x3c660e77	0.014041535
218	0x3d104f48	0.03523186
219	0x3d2227d4	0.039588764
220	0xbd1c6d54	-0.0381902
221	0xbd1d5208	-0.03840831
222	0xbd0b32a0	-0.033983827
223	0x3d4e01a3	0.05029453
224	0x3b06d802	0.0020575528
225	0x3d40792c	0.04699056
226	0x3c17845e	0.009247867
227	0x3d49a88f	0.049233016
228	0xbce3781b	-0.027767232
229	0x3c2894a0	0.010289341
230	0xbcc05b4f	-0.02348104
231	0x3cea2583	0.02858234
232	0x3acd274c	0.001565197
233	0xbd0a9208	-0.033830673
234	0xbd2fb96c	-0.04290144
235	0x3bb5fd43	0.005553873
236	0xbc7e4d6b	-0.015521388
237	0x3b853c81	0.0040660505
238	0x3cb2e511	0.021837743
239	0x3ce9eebb	0.028556218
240	0x3cc3e2cf	0.023911862
241	0xbc6d149c	-0.014470246
242	0x3d2212b5	0.03956862
243	0xbcc40bd8	-0.023931429
244	0xba3d1df3	-0.00072142406
245	0xbccd428b	-0.025056144
246	0x3ce30122	0.027710501
247	0xbc6c9ff6	-0.014442435
248	0x3c93af50	0.018027931
249	0xbd461803	-0.048362743
250	0xbcc1c144	-0.023651727
251	0x3d6402bc	0.05566667
252	0x3ca3dfba	0.020004142
253	0xbcfc80f0	-0.030823201
254	0xbd1690a1	-0.036759023
255	0x3cb7901d	0.022407586

fc1.bias f4 [120]
0	0xbc8d1808	-0.017223373
1	0x3c4cdd0b	0.012503873
2	0xbcacf1cd	-0.021111393
3	0x3d3981db	0.045289855
4	0xbbefa3cd	-0.0073132277
5	0xbc4a6eb8	-0.012355499
6	0xbb7b3862	-0.0038333167
7	0xbd0d7749	-0.034537587
8	0x3d083257	0.033251133
9	0xbcb1450e	-0.021639373
10	0xb9ab7431	-0.0003270223
11	0xbd1d4a10	-0.03840071
12	0xbd3c8226	-0.046022557
13	0xbd0c04f7	-0.034184422
14	0x3d053cf5	0.032528836
15	0x3cd8f47a	0.026483763
16	0x3cbbf971	0.022946091
17	0x3c6652b7	0.014057807
18	0x3c669e91	0.014075891
19	0xbc2f3686	-0.010694152
20	0x3ca9fc55	0.020750204
21	0xbcdf3c89	-0.027250545
22	0x3d63f15c	0.0556501
23	0x3d134514	0.03595455
24	0x3bbb7cb6	0.005721654
25	0x3d12631e	0.035739057
26	0xbafcbc66	-0.0019282221
27	0xbd229884	-0.03969623
28	0xbc1ea38d	-0.009682548
29	0xbd219ddd	-0.03945719
30	0xbce595b9	-0.028025495
31	0x3c9888a4	0.018619843
32	0xbc9444ff	-0.018099306
33	0x3cc8697c	0.024464361
34	0x3cac4dce	0.021033194
35	0xbcb37708	-0.021907344
36	0xbcf0256e	-0.029314723
37	0x3cba9b43	0.022779113
38	0xbd259c89	-0.040432487
39	0x3d14f857	0.036369648
40	0x3d04cbaa	0.03242079
41	0x3c9117c9	0.017711537
42	0xbcb67cfd	-0.022276396
43	0x3d1490f9	0.03627107
44	0x3d5e3421	0.054248933
45	0xba5c154c	-0.00083955075
46	0xbd1f7d77	-0.038938012
47	0x3d2b12c0	0.04176593
48	0xbd3b5fec	-0.045745775
49	0xbb5b48d0	-0.0033460148
50	0x3d591283	0.05299617
51	0xbd43efdc	-0.04783617
52	0xbc931bb1	-0.01795754
53	0xbd19c259	-0.03753886
54	0xbd2338b2	-0.03984899
55	0xbc45e359	-0.01207813
56	0x3d4b3ded	0.049619604
57	0x3c25de57	0.010123811
58	0x3d11b1d8	0.035569996
59	0x3bb6f000	0.0055828094
60	0xbc37cb16	-0.011217853
61	0xbc7bf238	-0.015377574
62	0xbae40d09	-0.0017398904
63	0x3d1264ae	0.035740547
64	0x3d6bc42a	0.057560124
65	0x3d6b05a9	0.057378445
66	0x3c052e92	0.008128779
67	0xbcca2002	-0.024673466
68	0xbc73b547	-0.014874763
69	0x3d378307	0.04480269
70	0xbc0084f6	-0.0078442
71	0x3c8f5599	0.01749687
72	0x3d207b1e	0.039179914
73	0xbce8e1a1	-0.0284279
74	0xbbeff3c1	-0.007322759
75	0x3c712a66	0.014719581
76	0xbcc36c53	-0.023855364
77	0x3cbbb612	0.022913966
78	0x3d20145d	0.03908192
79	0xbd397eaf	-0.04528683
80	0xbafc2e12	-0.0019239804
81	0x3d386bba	0.04502461
82	0x3c49470c	0.012285005
83	0x3ce89f4c	0.028396271
84	0x3aaf515a	0.0013375685
85	0xbd0a2377	-0.03372523
86	0x3cf42674	0.029803492
87	0x3d6eb2a8	0.05827585
88	0xbcc67223	-0.024224347
89	0xbb623577	-0.003451673
90	0xbb972978	-0.0046130978
91	0xbd222a63	-0.039591204
92	0x3cea2b18	0.028585002
93	0x3c5e229f	0.013558059
94	0xbbc04b73	-0.0058683692
95	0x391752a8	0.00014431274
96	0xbd0c7a26	-0.034296177
97	0x3c5ef6f7	0.013608686
98	0x3d32dffb	0.043670636
99	0xbc5149ed	-0.012773973
100	0xbd2563de	-0.040378444
101	0x3cd0ca2b	0.025487026
102	0xbcf143d2	-0.029451285
103	0xbd22a9b8	-0.039712638
104	0x3b7899c0	0.003793344
105	0x3d494d08	0.04914573
106	0x3ccf60a2	0.025314633
107	0xbd3c1ef1	-0.045927946
108	0xbcf9ec69	-0.030508237
109	0x3bada751	0.0052994867
110	0x3ade6ec2	0.0016970264
111	0x3d74895f	0.05970132
112	0xbcfb428f	-0.030671386
113	0x3ceb4be3	0.028722709
114	0x3cd9707b	0.026542893
115	0xbcabccd5	-0.020971695
116	0xbc345978	-0.011007659
117	0x3d4ae004	0.049530044
118	0xbc8c418f	-0.017121105
119	0xbcccf041	-0.025016906

fc2.weight f4 [84, 120]
0	0x3df4deb9	0.119565435
1	0x3c5e3d0d	0.01356436
2	0x3c179a49	0.009253093
3	0x3d1abceb	0.037777822
4	0xbcd407b3	-0.025882578
5	0xbda07de6	-0.07836513
6	0x3d16d2c5	0.0368221
7	0x3da4f34e	0.08054219
8	0x3e1d28c5	0.15347584
9	0xbc425ef5	-0.01186346
10	0xbba21c24	-0.0049472023
11	0x3d44e020	0.048065305
12	0xbcf5fb41	-0.030027034
13	0x3dabba0a	0.083850935
14	0x3d9eece1	0.07760025
15	0xbd0eae03	-0.03483392
16	0x3dd0aeaa	0.101895645
17	0x3d8c7eb4	0.06860104
18	0xbc19048a	-0.009339461
19	0xbd7583b4	-0.059940055
20	0x3d38cde4	0.045118228
21	0x3d8b1018	0.06790179
22	0x3d200e84	0.039076343
23	0xbdd12d5e	-0.10213731
24	0x3cf571ca	0.029961485
25	0x3e0908a9	0.1338221
26	0xbd8a2d8e	-0.0674697
27	0x3ddbf148	0.1073938
28	0x3d240f18	0.040053457
29	0xbdf301b2	-0.11865558
30	0x3d044c7e	0.03229951
31	0x3c691eba	0.014228517
32	0x3d8fe50d	0.0702611
33	0xbce373af	-0.027765123
34	0xbb8ac107	-0.0042344364
35	0xbbcb7ed3	-0.006210187
36	0xbdca5385	-0.09879211
37	0x3ba58f8b	0.005052512
38	0xbd560c36	-0.05225774
39	0x3cdd9f08	0.027053371
40	0xbce2d46b	-0.02768918
41	0x3dcf3edb	0.101194106
42	0xbda2562a	-0.07926591
43	0x3d7f82bf	0.06238055
44	0x3db08e94	0.086209446
45	0xbcd94f5b	-0.026527097
46	0xbe0300af	-0.1279323
47	0xbdd9c6e2	-0.10633637
48	0x3daf67d9	0.08564729
49	0x3ce2f264	0.027703471
50	0xbda07925	-0.078356065
51	0x3d1b9090	0.037979662
52	0xbd42ebbb	-0.04758809
53	0xbd86b4cb	-0.06577452
54	0x3c20b684	0.00980914
55	0x3bc3cef1	0.005975597
56	0x3ca0fb7a	0.019651163
57	0x3c3b1606	0.011418825
58	0x3d5c88b4	0.053841308
59	0xbbcc8e76	-0.0062425686
60	0xbd95a20e	-0.073063
61	0xbc50372e	-0.012708468
62	0x3d8f477e	0.06996058
63	0x3d324fdb	0.043533187
64	0xbde19fe8	-0.11016828
65	0xbc7fb601	-0.015607358
66	0xbd9fca60	-0.07802272
67	0xbdc28a4b	-0.094990335
68	0xbd950e01	-0.07278062
69	0xbd938459	-0.07202978
70	0x3d696cc0	0.056988478
71	0x3cd6dc10	0.02622798
72	0x3da59d38	0.08086628
73	0x3deae1ce	0.1146885
74	0xbda151e7	-0.0787695
75	0xbdc6ec17	-0.09712999
76	0x3d4390cf	0.047745522
77	0xbd3e7126	-0.046494626
78	0xbc9e48d1	-0.019321831
79	0x3d8f727d	0.07004259
80	0x3bd55eee	0.0065115606
81	0x3dbc927d	0.09207628
82	0xbcf454c6	-0.02982558
83	0xbd804f05	-0.06265072
84	0xbc2ba9a0	-0.0104774535
85	0xbcf7db40	-0.030255914
86	0xbd36c025	-0.044616837
87	0xbd9fa040	-0.07794237
88	0xbcd36697	-0.025805755
89	0xbc0ed502	-0.008717777
90	0xbb3df709	-0.0028986356
91	0xbdb31532	-0.08744277
92	0x3d8f7dcb	0.07006415
93	0xbd2bd596	-0.04195174
94	0x3cfc1020	0.030769408
95	0xbd353906	-0.044243835
96	0xbdf27a98	-0.11839789
97	0xbd392cce	-0.045208745
98	0xbbe13247	-0.0068724486
99	0x3d12b899	0.035820577
100	0xbd8be5cd	-0.068309404
101	0x3b03b72b	0.002009819
102	0xbcc803f4	-0.024415947
103	0xbd859436	-0.065224096
104	0x3beaa855	0.00716118
105	0x3d8f5236	0.06998102
106	0xbce81c71	-0.028333874
107	0xbcdd2c6a	-0.026998717
108	0xbe02d189	-0.12775244
109	0xbba154fd	-0.0049234615
110	0x3d859e68	0.06524354
111	0x3dac195f	0.08403277
112	0x3c64257c	0.013924953
113	0xbd7e480c	-0.062080428
114	0x3d943020	0.072357416
115	0x3d113165	0.035447497
116	0xbdb7e3ea	-0.08979018
117	0x3d91c45d	0.071175314
118	0xbda4f8cc	-0.08055267
119	0x3d77b56f	0.060475763
120	0x3cf64ba6	0.030065369
121	0xbda1ce64	-0.07900694
122	0x3daa54f6	0.08316986
123	0x3d77dda7	0.06051412
124	0x3cfcb37b	0.030847302
125	0xbd531948	-0.051537782
126	0xbc5c6a89	-0.013453134
127	0xbd47f9ab	-0.048822086
128	0x3c48d7cb	0.01225848
129	0x3c6ad994	0.014334101
130	0xbd87a265	-0.06622771
131	0x3daab068	0.08334428
132	0xbdabdb53	-0.08391442
133	0xbc37f342	-0.011227431
134	0x3d7fb5a4	0.062429085
135	0xbd968b88	-0.07350832
136	0xbdd4cca1	-0.10390592
137	0x3c5aca48	0.013353892
138	0x3dc6b8aa	0.097031906
139	0xbd84e58b	-0.06489094
140	0x3d7589a5	0.05994572
141	0x3dae2803	0.085037254
142	0xbd9560d9	-0.07293863
143	0x3dacaeb9	0.08431763
144	0xbd1acacd	-0.037791062
145	0xbd95b3c0	-0.07309675
146	0xbdcae83e	-0.09907578
147	0xbc96c325	-0.018403599
148	0xbcc11919	-0.023571538
149	0x3d95fc91	0.07323564
150	0xbda21475	-0.07914058
151	0x3dc0f3de	0.09421514
152	0x3db97771	0.09055985
153	0xbda9519b	-0.08267518
154	0xbd5534b9	-0.052052233
155	0x3cdbc142	0.026825551
156	0xbd5d1d58	-0.053983063
157	0x3abda925	0.0014469965
158	0x3d84730a	0.064672545
159	0x3bbb1988	0.0057098307
160	0xbd34216a	-0.04397718
161	0x3d883298	0.06650275
162	0xbdc328b9	-0.095292516
163	0xbc9d8c4e	-0.019231942
164	0x3b81a57a	0.003956494
165	0xbd11ac94	-0.035564974
166	0x3d1a0040	0.037597895
167	0x3da65363	0.081213735
168	0x3ce1a9b8	0.027546749
169	0x3d4736c0	0.048636198
170	0x3c8193dc	0.015817575
171	0x3cc52267	0.024064256
172	0x3cf4d9dd	0.029889042
173	0xbd66ab24	-0.056315556
174	0xbcbf1543	-0.023325568
175	0xbdb15e62	-0.0866058
176	0x3d9c05ad	0.0761827
177	0x3d01a26e	0.031649046
178	0xbb1a8424	-0.0023577297
179	0xbda4c315	-0.080450214
180	0x3d49a57b	0.04923008
181	0x3d873dc5	0.066035785
182	0xbd009a1e	-0.031396978
183	0x3d33005b	0.04370151
184	0xbd457b41	-0.048213247
185	0x3d040d94	0.03223951
186	0x3d7129a9	0.05887762
187	0xbd6b88c8	-0.05750349
188	0x3da6750c	0.08127794
189	0x3dac0619	0.083996005
190	0xbd054734	-0.032538608
191	0xbdc22574	-0.094798
192	0xbd51c720	-0.05121529
193	0x3d9d2b07	0.076742224
194	0x3db09c0b	0.08623513
195	0xbdb27220	-0.08713174
196	0xbce1d160	-0.027565658
197	0x3db07cac	0.08617529
198	0xbd46a162	-0.04849375
199	0xbc93e359	-0.018052744
200	0x3dd779d1	0.105212815
201	0x3ca2f8b7	0.019893987
202	0xbdacd4b8	-0.084390104
203	0x3dbca13b	0.0921044
204	0x3da89891	0.08232225
205	0x3da3f96e	0.08006559
206	0xbd4f384a	-0.05059079
207	0xbdc17ab8	-0.09447235
208	0xbcb092a8	-0.021554306
209	0x3c3e0882	0.011598708
210	0xbdb42d3d	-0.08797691
211	0x3d919837	0.07109111
212	0x3c8af625	0.016963074
213	0x3daad42e	0.08341251
214	0x3d2bef3d	0.041976202
215	0x3d32a093	0.043610167
216	0xbd056ae3	-0.03257264
217	0x3daf8d4a	0.085718706
218	0xbda5d42f	-0.080971114
219	0x3d71f452	0.059070893
220	0x3d655a64	0.055994406
221	0x3d5930da	0.053025104
222	0x3e01d311	0.12678172
223	0xbda208c6	-0.0791183
224	0xbdb5b109	-0.088716574
225	0x3c45ffa9	0.01208488
226	0xbdc0e88c	-0.09419355
227	0x3dc787a0	0.09742665
228	0x3d270f7e	0.04078626
229	0xbd129e7f	-0.035795685
230	0xbac4a95c	-0.0015004086
231	0x3c0fba2b	0.008772413
232	0x3c2ee1fa	0.010673994
233	0x3ca54062	0.020172302
234	0xbdbba83f	-0.0916295
235	0xbd469367	-0.048480418
236	0x3d9fba80	0.07799244
237	0x3e01a6e3	0.12661318
238	0x3c0b465c	0.008500662
239	0xbb6923f8	-0.0035574418
240	0x3d05c197	0.032655325
241	0x3d49196f	0.04909652
242	0xbccfa821	-0.025348725
243	0xbdb1bd59	-0.08678693
244	0x3d6a4b14	0.057200506
245	0xbd65aeb7	-0.056074824
246	0xbd8f32ef	-0.06992137
247	0x3d66c0de	0.056336276
248	0x3d9a43f6	0.07532494
249	0xbcb9539d	-0.022622878
250	0xbc9439a8	-0.018093899
251	0xbcc662bc	-0.024217002
252	0xbd42f428	-0.047596127
253	0xbd2115a4	-0.03932728
254	0x3dcf98e2	0.10136582
255	0x3d3a2692	0.04544694

fc2.bias f4 [84]
0	0x3d1708f7	0.036873784
1	0x3d9de1ab	0.077090584
2	0xbd92805f	-0.07153391
3	0x3d6a9e0a	0.057279624
4	0xbd944aaf	-0.07240807
5	0xbd58ea98	-0.0529581
6	0x3c3d36e3	0.011548731
7	0x3d60e891	0.054909293
8	0x3dc4d84a	0.09611566
9	0x3d41e562	0.047337897
10	0xbdb72c76	-0.08944027
11	0x3dae00a6	0.084962174
12	0xbb8245d2	-0.0039756084
13	0x3d8765bf	0.066112034
14	0xbd9b1b8f	-0.07573616
15	0x3ccc7b7c	0.024961226
16	0x3db655db	0.089030944
17	0xbd89ad7f	-0.06722545
18	0x3d297f89	0.041381393
19	0xbd5b87cc	-0.053596303
20	0xbd1e8581	-0.038701538
21	0xbc3abc35	-0.011397411
22	0xbd8c9719	-0.06864757
23	0x3daf5eec	0.08563027
24	0xbd14c371	-0.0363192
25	0x3daf307a	0.08554168
26	0xba4e9db5	-0.00078817765
27	0xbbeed3fc	-0.007288454
28	0x3d177b82	0.03698302
29	0x3bb90ad4	0.0056470428
30	0xbd7b5ad1	-0.061365906
31	0xbcdd17a7	-0.026988817
32	0xbda58004	-0.08081058
33	0xbb3647f4	-0.0027813883
34	0x3b0584e2	0.0020373394
35	0x3da6def1	0.081479914
36	0xbd3653f5	-0.04451366
37	0x3c7f5af0	0.015585646
38	0xbd919e61	-0.071102865
39	0x3d0e5836	0.034752093
40	0xbc991d0e	-0.018690612
41	0xbce7b286	-0.028283369
42	0x3def9996	0.11699216
43	0x3c5a7e23	0.013335737
44	0x3df51fc0	0.119689465
45	0xbd9fd512	-0.07804312
46	0xbd6a2b05	-0.057169933
47	0x3ce8917b	0.028389683
48	0xbd8603d2	-0.065436974
49	0xbc7d9233	-0.015476751
50	0xbd60430c	-0.05475144
51	0xbc5d4be9	-0.013506868
52	0xbd1b0ef0	-0.037856042
53	0xbd918fa5	-0.07107476
54	0x3c79dc48	0.015250273
55	0xbda464a0	-0.08027005
56	0x3d9c6520	0.076364756
57	0xbd2cb5e4	-0.042165652
58	0x3d40cb0f	0.04706865
59	0x3db9db9f	0.090750925
60	0xbd9aafaa	-0.075530365
61	0x3cb0a41a	0.021562625
62	0xbd21259f	-0.03934252
63	0x3b82b4b8	0.0039888285
64	0xbd026c10	-0.031841338
65	0x3da5df68	0.08099252
66	0xbd9dca41	-0.077045925
67	0xbda16fe6	-0.07882671
68	0xbc539631	-0.012914226
69	0xbcc4409e	-0.023956593
70	0x3ddd0df4	0.10793677
71	0x3d7b941c	0.061420545
72	0x3d705908	0.058678657
73	0x3dc2b2c4	0.09506753
74	0xbcb18a60	-0.021672428
75	0x3d7571fc	0.059923157
76	0xbc93ba26	-0.018033098
77	0xbcc8b77e	-0.024501558
78	0x3d8c32fc	0.06845662
79	0xbcdc9844	-0.026928075
80	0x3d658bc1	0.056041483
81	0x3d6b687d	0.057472695
82	0xbce72a16	-0.02821831
83	0xbb074d1f	-0.0020645333

fc3.weight f4 [10, 84]
0	0xbd41a919	-0.047280405
1	0xbdafe054	-0.08587709
2	0xbd9d6bb4	-0.07686558
3	0xbdd6eb43	-0.10494091
4	0x3e18489e	0.14871451
5	0x3dfec7fe	0.12440489
6	0x3daf525b	0.0856063
7	0xbddf9696	-0.10917394
8	0xbcc988e1	-0.024601402
9	0xbd82b13a	-0.063814595
10	0x3d0e275e	0.034705512
11	0xbdda37a2	-0.10655142
12	0x3dfc973c	0.12333533
13	0x3e87949c	0.26480567
14	0xbd51e908	-0.051247627
15	0x3d22a07f	0.039703842
16	0x3e551653	0.20809297
17	0xbce8a3f4	-0.028398491
18	0xbd58f716	-0.052970015
19	0xbc193615	-0.009351273
20	0xbc00ee38	-0.007869296
21	0x3dabe96d	0.08394132
22	0xbdcf6ffa	-0.1012878
23	0x3da9d1ac	0.08291945
24	0xbdc4ef8b	-0.09616002
25	0x3c9e2b94	0.019307889
26	0x3d04dfa6	0.03243985
27	0x3d3fce0d	0.046827365
28	0xbdbbc847	-0.09169059
29	0x3de42498	0.11139792
30	0x3e2280fd	0.15869518
31	0x3c0bba1b	0.008528258
32	0xbd17115a	-0.036881782
33	0x3d872cd4	0.06600347
34	0x3d7da0b2	0.06192083
35	0x3da86fda	0.08224459
36	0x3d03fb11	0.032221857
37	0x3d9b29cd	0.07576332
38	0x3cde93f4	0.027170159
39	0x3cec8eef	0.02887675
40	0xbce0210b	-0.027359506
41	0x3e12c7dd	0.14334054
42	0xbd8ce996	-0.068804905
43	0x3e3fabcd	0.1871788
44	0xbd76b26a	-0.060228743
45	0xbe1657af	-0.14681886
46	0x3c2aa2f3	0.010414827
47	0x3d2c8a3b	0.042124014
48	0xbd26b253	-0.040697407
49	0xbd89de09	-0.06731803
50	0xbbffb45d	-0.0078034834
51	0x3cad3d37	0.021147354
52	0x3e0daab6	0.13834652
53	0x3caf2566	0.021380138
54	0x3d48f607	0.049062755
55	0xb9f1608a	-0.0004603903
56	0x3e0cb838	0.13742149
57	0x3dbc8b3b	0.092062436
58	0xbb1f108c	-0.0024271337
59	0xbbde0b35	-0.0067762383
60	0x3e2f89f6	0.17142472
61	0x3d090414	0.033451155
62	0x3e5a36ac	0.21309918
63	0xbd8808c7	-0.06642299
64	0xbdf7fe67	-0.1210907
65	0x3dec3ab6	0.11534636
66	0x3d89d812	0.06730665
67	0xbd5934da	-0.05302892
68	0xbd8d9414	-0.06913009
69	0x3e0549f9	0.130165
70	0x3d15763b	0.036489706
71	0xbd29de79	-0.041471932
72	0x3d8b9e38	0.06817287
73	0xbe051ab3	-0.12998466
74	0xbd4c3fb4	-0.04986544
75	0xbd87f773	-0.06638994
76	0xbdb97085	-0.090546645
77	0xbd118f94	-0.035537317
78	0x3e7e3126	0.24823436
79	0xbd2a88ee	-0.041634493
80	0xbd8e72c3	-0.06955483
81	0xbd10c60d	-0.035345126
82	0xbd881784	-0.0664511
83	0x3c935d1c	0.017988734
84	0x3d1c772c	0.03819959
85	0x3e48416a	0.19556203
86	0xbd910b55	-0.070822395
87	0x3dff5617	0.12467592
88	0x3cfa5121	0.030556263
89	0x3bf07bb5	0.007338966
90	0xbe30f4be	-0.17280862
91	0x3c1da599	0.009622001
92	0xbca321fb	-0.019913664
93	0x3dbe8576	0.093027994
94	0x3c8bb5ad	0.017054403
95	0xbe3cd420	-0.18440294
96	0x3d1a92b0	0.03773755
97	0x3d9f05ac	0.07764754
98	0x3d9eda1d	0.077564456
99	0x3bfe3344	0.007757576
100	0xbcb9f81d	-0.022701317
101	0xbd832f13	-0.06405463
102	0x3d55e8a3	0.052223813
103	0x3d498f05	0.04920866
104	0xbd694f92	-0.05696065
105	0xbd0cb064	-0.034347907
106	0xbd6ae48e	-0.057346873
107	0xbe44c74f	-0.19216655
108	0x3dd5465c	0.104138106
109	0xbe2b0f30	-0.16705012
110	0x3d722e09	0.059125934
111	0xbd86d352	-0.06583275
112	0xbde9a310	-0.11408055
113	0x3d2bf41a	0.04198084
114	0xbce954f0	-0.028482884
115	0xbd7bdb2b	-0.06148831
116	0xbdda0c40	-0.10646868
117	0x3ea34ff7	0.31896946
118	0x3d819586	0.063273475
119	0x3d5e4028	0.054260403
120	0x3ddf89b4	0.10914937
121	0x3d255130	0.04036063
122	0xbd217240	-0.039415598
123	0xbd2ffc23	-0.042965066
124	0x3da064c1	0.07831717
125	0xbe26fba6	-0.16306934
126	0x3d6622e9	0.056185637
127	0x3d7b2c5d	0.061321605
128	0xbda53cae	-0.08068214
129	0x3d5e36d0	0.054251492
130	0x3df306d0	0.11866534
131	0x3c54529c	0.012959149
132	0x3d5ff1d4	0.054673985
133	0x3e68d27d	0.22736545
134	0x3dfe471c	0.12415907
135	0x3decd473	0.11563959
136	0xbe11b2a8	-0.14228308
137	0xbdb4017a	-0.08789344
138	0x3d6a5149	0.057206426
139	0xbe05be23	-0.13060813
140	0x3bf58613	0.0074927895
141	0x3cc48c70	0.023992747
142	0xbdf9d19a	-0.121981815
143	0xbc8352af	-0.016030638
144	0xbe215c2c	-0.15757817
145	0xbccb4485	-0.024812946
146	0x3db322f1	0.08746899
147	0x3ca4435f	0.020051656
148	0x3e517d6a	0.20457998
149	0x3e5b8c70	0.21440291
150	0xbcadd98e	-0.021221902
151	0x3d494519	0.049138162
152	0xbcfa8482	-0.030580763
153	0xbcdc3f77	-0.026885731
154	0xbe3e7167	-0.18597947
155	0x3db23fd4	0.087035805
156	0xbdd33f94	-0.10314861
157	0xbe3f02ba	-0.18653384
158	0x3d720966	0.059090994
159	0xbe4f3988	-0.2023679
160	0x3e0e75f6	0.13912186
161	0x3d8369ad	0.064166404
162	0xbe67bfc8	-0.22631752
163	0xbdc28f18	-0.09499949
164	0x3e343c6d	0.17601176
165	0xbda68012	-0.08129896
166	0x3d55fa5c	0.052240714
167	0x3c6c4b51	0.014422254
168	0xbe4bb218	-0.19892156
169	0x3c7b75a7	0.015347875
170	0xbd8ef84a	-0.06980951
171	0xbb83347c	-0.0040040594
172	0x3d2040b7	0.039124217
173	0xbe7e7466	-0.2484909
174	0x3d9d53b4	0.07681981
175	0xbd8a279a	-0.06745835
176	0xbdf8e4d1	-0.12153018
177	0xbd3b0db0	-0.04566735
178	0xbd34bbdf	-0.04412448
179	0xbe0dcb82	-0.13847163
180	0x3d4a0f82	0.049331196
181	0x3d78e59a	0.06076584
182	0x3c1d02ea	0.009583214
183	0xbb634e77	-0.003468422
184	0x3d20a3ba	0.03921864
185	0xbd32cddd	-0.043653358
186	0x3d925949	0.07145936
187	0x3db5ac90	0.08870804
188	0xbbbb97cd	-0.005724883
189	0x3d83c7fb	0.064346276
190	0x3d4a8e1a	0.049451925
191	0x3d8988ea	0.067155674
192	0xbcb7cb3a	-0.022435773
193	0x3e866e1e	0.26255888
194	0xbb168876	-0.002296952
195	0xbc901f84	-0.017593153
196	0x3e79aa42	0.24381354
197	0xbd0b198e	-0.033959918
198	0x3e096c78	0.13420284
199	0x3dd4e22c	0.10394701
200	0x3ca132d6	0.01967756
201	0xbdfdcb9f	-0.12392353
202	0x3dc8f3dc	0.098121375
203	0xbcf03154	-0.029320396
204	0xbb97f67e	-0.0046375385
205	0xbd02a8fb	-0.031899434
206	0x3d01145a	0.03151355
207	0x3d230573	0.03980012
208	0x3e6369f7	0.22208391
209	0xbdb9b9d1	-0.09068645
210	0xbe28d2eb	-0.16486709
211	0x3e0e51dd	0.13898416
212	0x3e599dd2	0.2125161
213	0x3d9aaefc	0.07552907
214	0x3e4b29c1	0.19840147
215	0xbe2e88bc	-0.17044348
216	0xbd75c58e	-0.060002856
217	0x3df95691	0.12174714
218	0x3b2db0b6	0.0026503033
219	0xbdd40b95	-0.103537716
220	0xbdc0b678	-0.09409803
221	0xbdd6730a	-0.10471161
222	0xbc15d5f6	-0.009145251
223	0x3df637d9	0.12022371
224	0xbe58c6ae	-0.2116954
225	0xbdbb5ac1	-0.09148169
226	0x3db0fa48	0.08641487
227	0xbe1ff0fe	-0.15619275
228	0xbdeb04e3	-0.114755414
229	0x3d968124	0.0734885
230	0xbda9fb89	-0.0829993
231	0xbcd30e8c	-0.025763772
232	0xbd9cb569	-0.07651789
233	0x3ba2dd48	0.0049702264
234	0xbcca7414	-0.024713553
235	0x3d763216	0.06010636
236	0xbd1f9f60	-0.03897035
237	0x3de689b0	0.112567306
238	0x3e5edf70	0.21764922
239	0xbe27050d	-0.1631052
240	0xbd771900	-0.060326576
241	0xbd47185b	-0.04860721
242	0xbdcf3439	-0.101173826
243	0xbcc9bc56	-0.024625938
244	0xbc7975bb	-0.015225823
245	0xbd071267	-0.032976534
246	0x3e4f80a2	0.20263913
247	0x3d9a2cb3	0.07528057
248	0xbe2ff68a	-0.17183891
249	0xbde2eed5	-0.1108071
250	0x3a9ea4eb	0.0012103593
251	0xbd8ec3a3	-0.069709085
252	0xbe2acfaf	-0.16680788
253	0xbdf34709	-0.11878783
254	0x3da0cb85	0.07851318
255	0x3e5707d7	0.20999084

fc3.bias f4 [10]
0	0x3cfcaa35	0.03084288
1	0xbd4104b2	-0.04712362
2	0x3d0c9c16	0.034328543
3	0x3cf23a06	0.029568683
4	0xbde3fac2	-0.11131813
5	0x3db7c57a	0.089732125
6	0xbc1b125e	-0.009464828
7	0xbd04ad43	-0.032391798
8	0x3cc07a74	0.02349589
9	0xbd334f5d	-0.04377686
